…
I0718 03:31:33.068907  7016 net.cpp:344] The NetState phase (0) differed from the phase (1) specified by a rule in layer accuracy_top1
I0718 03:31:33.069409  7016 net.cpp:76] Initializing net from parameters: 
name: "LLFace"
state {
  phase: TRAIN
  level: 0
  stage: ""
}
layer {
  name: "data"
  type: "Data"
  top: "data"
  top: "label"
  include {
    phase: TRAIN
  }
  transform_param {
    scale: 0.0078125
    mirror: true
    crop_size: 128
    mean_value: 104
    mean_value: 117
    mean_value: 124
  }
  data_param {
    source: "D:/Research/LoveLiveFaceRecognition/trainLevelDB"
    batch_size: 64
    backend: LEVELDB
  }
}
layer {
  name: "conv1"
  type: "Convolution"
  bottom: "data"
  top: "conv1"
  param {
    lr_mult: 1
    decay_mult: 1
  }
  param {
    lr_mult: 2
    decay_mult: 0
  }
  convolution_param {
    num_output: 32
    pad: 2
    kernel_size: 5
    stride: 1
    weight_filler {
      type: "xavier"
    }
    bias_filler {
      type: "constant"
      value: 0.1
    }
  }
}
layer {
  name: "slice1"
  type: "Slice"
  bottom: "conv1"
  top: "slice1_1"
  top: "slice1_2"
  slice_param {
    slice_dim: 1
  }
}
layer {
  name: "etlwise1"
  type: "Eltwise"
  bottom: "slice1_1"
  bottom: "slice1_2"
  top: "eltwise1"
  eltwise_param {
    operation: MAX
  }
}
layer {
  name: "pool1"
  type: "Pooling"
  bottom: "eltwise1"
  top: "pool1"
  pooling_param {
    pool: MAX
    kernel_size: 2
    stride: 2
  }
}
layer {
  name: "conv2a"
  type: "Convolution"
  bottom: "pool1"
  top: "conv2a"
  param {
    lr_mult: 1
    decay_mult: 1
  }
  param {
    lr_mult: 2
    decay_mult: 0
  }
  convolution_param {
    num_output: 32
    pad: 1
    kernel_size: 3
    stride: 1
    weight_filler {
      type: "xavier"
    }
    bias_filler {
      type: "constant"
      value: 0.1
    }
  }
}
layer {
  name: "slice2a"
  type: "Slice"
  bottom: "conv2a"
  top: "slice2a_1"
  top: "slice2a_2"
  slice_param {
    slice_dim: 1
  }
}
layer {
  name: "etlwise2a"
  type: "Eltwise"
  bottom: "slice2a_1"
  bottom: "slice2a_2"
  top: "eltwise2a"
  eltwise_param {
    operation: MAX
  }
}
layer {
  name: "conv2"
  type: "Convolution"
  bottom: "eltwise2a"
  top: "conv2"
  param {
    lr_mult: 1
    decay_mult: 1
  }
  param {
    lr_mult: 2
    decay_mult: 0
  }
  convolution_param {
    num_output: 64
    kernel_size: 3
    stride: 2
    weight_filler {
      type: "xavier"
    }
    bias_filler {
      type: "constant"
      value: 0.1
    }
  }
}
layer {
  name: "slice2"
  type: "Slice"
  bottom: "conv2"
  top: "slice2_1"
  top: "slice2_2"
  slice_param {
    slice_dim: 1
  }
}
layer {
  name: "etlwise2"
  type: "Eltwise"
  bottom: "slice2_1"
  bottom: "slice2_2"
  top: "eltwise2"
  eltwise_param {
    operation: MAX
  }
}
layer {
  name: "pool2"
  type: "Pooling"
  bottom: "eltwise2"
  top: "pool2"
  pooling_param {
    pool: MAX
    kernel_size: 2
    stride: 2
  }
}
layer {
  name: "conv3a"
  type: "Convolution"
  bottom: "pool2"
  top: "conv3a"
  param {
    lr_mult: 1
    decay_mult: 1
  }
  param {
    lr_mult: 2
    decay_mult: 0
  }
  convolution_param {
    num_output: 64
    kernel_size: 1
    stride: 1
    weight_filler {
      type: "xavier"
    }
    bias_filler {
      type: "constant"
      value: 0.1
    }
  }
}
layer {
  name: "slice3a"
  type: "Slice"
  bottom: "conv3a"
  top: "slice3a_1"
  top: "slice3a_2"
  slice_param {
    slice_dim: 1
  }
}
layer {
  name: "etlwise3a"
  type: "Eltwise"
  bottom: "slice3a_1"
  bottom: "slice3a_2"
  top: "eltwise3a"
  eltwise_param {
    operation: MAX
  }
}
layer {
  name: "conv3"
  type: "Convolution"
  bottom: "eltwise3a"
  top: "conv3"
  param {
    lr_mult: 1
    decay_mult: 1
  }
  param {
    lr_mult: 2
    decay_mult: 0
  }
  convolution_param {
    num_output: 128
    kernel_size: 3
    stride: 1
    weight_filler {
      type: "xavier"
    }
    bias_filler {
      type: "constant"
      value: 0.1
    }
  }
}
layer {
  name: "slice3"
  type: "Slice"
  bottom: "conv3"
  top: "slice3_1"
  top: "slice3_2"
  slice_param {
    slice_dim: 1
  }
}
layer {
  name: "etlwise3"
  type: "Eltwise"
  bottom: "slice3_1"
  bottom: "slice3_2"
  top: "eltwise3"
  eltwise_param {
    operation: MAX
  }
}
layer {
  name: "pool3"
  type: "Pooling"
  bottom: "eltwise3"
  top: "pool3"
  pooling_param {
    pool: MAX
    kernel_size: 2
    stride: 2
  }
}
layer {
  name: "conv4a"
  type: "Convolution"
  bottom: "pool3"
  top: "conv4a"
  param {
    lr_mult: 1
    decay_mult: 1
  }
  param {
    lr_mult: 2
    decay_mult: 0
  }
  convolution_param {
    num_output: 128
    kernel_size: 1
    stride: 1
    weight_filler {
      type: "xavier"
    }
    bias_filler {
      type: "constant"
      value: 0.1
    }
  }
}
layer {
  name: "slice4a"
  type: "Slice"
  bottom: "conv4a"
  top: "slice4a_1"
  top: "slice4a_2"
  slice_param {
    slice_dim: 1
  }
}
layer {
  name: "etlwise4a"
  type: "Eltwise"
  bottom: "slice4a_1"
  bottom: "slice4a_2"
  top: "eltwise4a"
  eltwise_param {
    operation: MAX
  }
}
layer {
  name: "conv4"
  type: "Convolution"
  bottom: "eltwise4a"
  top: "conv4"
  param {
    lr_mult: 1
    decay_mult: 1
  }
  param {
    lr_mult: 2
    decay_mult: 0
  }
  convolution_param {
    num_output: 96
    kernel_size: 1
    stride: 1
    weight_filler {
      type: "xavier"
    }
    bias_filler {
      type: "constant"
      value: 0.1
    }
  }
}
layer {
  name: "slice4"
  type: "Slice"
  bottom: "conv4"
  top: "slice4_1"
  top: "slice4_2"
  slice_param {
    slice_dim: 1
  }
}
layer {
  name: "etlwise4"
  type: "Eltwise"
  bottom: "slice4_1"
  bottom: "slice4_2"
  top: "eltwise4"
  eltwise_param {
    operation: MAX
  }
}
layer {
  name: "conv5a"
  type: "Convolution"
  bottom: "eltwise4"
  top: "conv5a"
  param {
    lr_mult: 1
    decay_mult: 1
  }
  param {
    lr_mult: 2
    decay_mult: 0
  }
  convolution_param {
    num_output: 96
    kernel_size: 3
    stride: 1
    weight_filler {
      type: "xavier"
    }
    bias_filler {
      type: "constant"
      value: 0.1
    }
  }
}
layer {
  name: "slice5a"
  type: "Slice"
  bottom: "conv5a"
  top: "slice5a_1"
  top: "slice5a_2"
  slice_param {
    slice_dim: 1
  }
}
layer {
  name: "etlwise5a"
  type: "Eltwise"
  bottom: "slice5a_1"
  bottom: "slice5a_2"
  top: "eltwise5a"
  eltwise_param {
    operation: MAX
  }
}
layer {
  name: "conv5"
  type: "Convolution"
  bottom: "eltwise5a"
  top: "conv5"
  param {
    lr_mult: 1
    decay_mult: 1
  }
  param {
    lr_mult: 2
    decay_mult: 0
  }
  convolution_param {
    num_output: 256
    kernel_size: 3
    stride: 1
    weight_filler {
      type: "xavier"
    }
    bias_filler {
      type: "constant"
      value: 0.1
    }
  }
}
layer {
  name: "slice5"
  type: "Slice"
  bottom: "conv5"
  top: "slice5_1"
  top: "slice5_2"
  slice_param {
    slice_dim: 1
  }
}
layer {
  name: "etlwise5"
  type: "Eltwise"
  bottom: "slice5_1"
  bottom: "slice5_2"
  top: "eltwise5"
  eltwise_param {
    operation: MAX
  }
}
layer {
  name: "pool4"
  type: "Pooling"
  bottom: "eltwise5"
  top: "pool4"
  pooling_param {
    pool: AVE
    kernel_size: 3
    stride: 3
  }
}
layer {
  name: "slice_fc1"
  type: "Slice"
  bottom: "pool4"
  top: "slice_fc1_1"
  top: "slice_fc1_2"
  slice_param {
    slice_dim: 1
  }
}
layer {
  name: "etlwise_fc1"
  type: "Eltwise"
  bottom: "slice_fc1_1"
  bottom: "slice_fc1_2"
  top: "eltwise_fc1"
  eltwise_param {
    operation: MAX
  }
}
layer {
  name: "drop1"
  type: "Dropout"
  bottom: "eltwise_fc1"
  top: "eltwise_fc1"
  dropout_param {
    dropout_ratio: 0.7
  }
}
layer {
  name: "fc2"
  type: "InnerProduct"
  bottom: "eltwise_fc1"
  top: "fc2"
  inner_product_param {
    num_output: 9
    weight_filler {
      type: "xavier"
    }
    bias_filler {
      type: "constant"
      value: 0.1
    }
  }
}
layer {
  name: "softmax_loss"
  type: "SoftmaxWithLoss"
  bottom: "fc2"
  bottom: "label"
  top: "softmax_loss"
}
I0718 03:31:33.070412  7016 layer_factory.hpp:77] Creating layer data
I0718 03:31:33.070912  7016 net.cpp:119] Creating Layer data
I0718 03:31:33.070912  7016 net.cpp:432] data -> data
I0718 03:31:33.071415  7016 net.cpp:432] data -> label
I0718 03:31:33.075927 15080 db_leveldb.cpp:18] Opened leveldb D:/Research/LoveLiveFaceRecognition/trainLevelDB
I0718 03:31:33.111547  7016 data_layer.cpp:41] output data size: 64,3,128,128
I0718 03:31:33.132076  7016 net.cpp:170] Setting up data
I0718 03:31:33.132076  7016 net.cpp:177] Top shape: 64 3 128 128 (3145728)
I0718 03:31:33.133607  7016 net.cpp:177] Top shape: 64 (64)
I0718 03:31:33.133607  7016 net.cpp:185] Memory required for data: 12583168
I0718 03:31:33.133607  7016 layer_factory.hpp:77] Creating layer conv1
I0718 03:31:33.134080  7016 net.cpp:119] Creating Layer conv1
I0718 03:31:33.134080  7016 net.cpp:458] conv1 <- data
I0718 03:31:33.134583  7016 net.cpp:432] conv1 -> conv1
I0718 03:31:34.151285  7016 net.cpp:170] Setting up conv1
I0718 03:31:34.151285  7016 net.cpp:177] Top shape: 64 32 128 128 (33554432)
I0718 03:31:34.152290  7016 net.cpp:185] Memory required for data: 146800896
I0718 03:31:34.152791  7016 layer_factory.hpp:77] Creating layer slice1
I0718 03:31:34.152791  7016 net.cpp:119] Creating Layer slice1
I0718 03:31:34.152791  7016 net.cpp:458] slice1 <- conv1
I0718 03:31:34.153292  7016 net.cpp:432] slice1 -> slice1_1
I0718 03:31:34.153794  7016 net.cpp:432] slice1 -> slice1_2
I0718 03:31:34.153794  7016 net.cpp:170] Setting up slice1
I0718 03:31:34.154294  7016 net.cpp:177] Top shape: 64 16 128 128 (16777216)
I0718 03:31:34.154294  7016 net.cpp:177] Top shape: 64 16 128 128 (16777216)
I0718 03:31:34.154795  7016 net.cpp:185] Memory required for data: 281018624
I0718 03:31:34.154795  7016 layer_factory.hpp:77] Creating layer etlwise1
I0718 03:31:34.155297  7016 net.cpp:119] Creating Layer etlwise1
I0718 03:31:34.155297  7016 net.cpp:458] etlwise1 <- slice1_1
I0718 03:31:34.155798  7016 net.cpp:458] etlwise1 <- slice1_2
I0718 03:31:34.155798  7016 net.cpp:432] etlwise1 -> eltwise1
I0718 03:31:34.156299  7016 net.cpp:170] Setting up etlwise1
I0718 03:31:34.156299  7016 net.cpp:177] Top shape: 64 16 128 128 (16777216)
I0718 03:31:34.156299  7016 net.cpp:185] Memory required for data: 348127488
I0718 03:31:34.156800  7016 layer_factory.hpp:77] Creating layer pool1
I0718 03:31:34.156800  7016 net.cpp:119] Creating Layer pool1
I0718 03:31:34.157301  7016 net.cpp:458] pool1 <- eltwise1
I0718 03:31:34.157301  7016 net.cpp:432] pool1 -> pool1
I0718 03:31:34.157804  7016 net.cpp:170] Setting up pool1
I0718 03:31:34.157804  7016 net.cpp:177] Top shape: 64 16 64 64 (4194304)
I0718 03:31:34.158305  7016 net.cpp:185] Memory required for data: 364904704
I0718 03:31:34.158305  7016 layer_factory.hpp:77] Creating layer conv2a
I0718 03:31:34.158805  7016 net.cpp:119] Creating Layer conv2a
I0718 03:31:34.158805  7016 net.cpp:458] conv2a <- pool1
I0718 03:31:34.159307  7016 net.cpp:432] conv2a -> conv2a
I0718 03:31:34.161814  7016 net.cpp:170] Setting up conv2a
I0718 03:31:34.161814  7016 net.cpp:177] Top shape: 64 32 64 64 (8388608)
I0718 03:31:34.162315  7016 net.cpp:185] Memory required for data: 398459136
I0718 03:31:34.162817  7016 layer_factory.hpp:77] Creating layer slice2a
I0718 03:31:34.162817  7016 net.cpp:119] Creating Layer slice2a
I0718 03:31:34.162817  7016 net.cpp:458] slice2a <- conv2a
I0718 03:31:34.163317  7016 net.cpp:432] slice2a -> slice2a_1
I0718 03:31:34.163820  7016 net.cpp:432] slice2a -> slice2a_2
I0718 03:31:34.163820  7016 net.cpp:170] Setting up slice2a
I0718 03:31:34.164321  7016 net.cpp:177] Top shape: 64 16 64 64 (4194304)
I0718 03:31:34.164321  7016 net.cpp:177] Top shape: 64 16 64 64 (4194304)
I0718 03:31:34.164321  7016 net.cpp:185] Memory required for data: 432013568
I0718 03:31:34.164321  7016 layer_factory.hpp:77] Creating layer etlwise2a
I0718 03:31:34.164822  7016 net.cpp:119] Creating Layer etlwise2a
I0718 03:31:34.164822  7016 net.cpp:458] etlwise2a <- slice2a_1
I0718 03:31:34.165324  7016 net.cpp:458] etlwise2a <- slice2a_2
I0718 03:31:34.165324  7016 net.cpp:432] etlwise2a -> eltwise2a
I0718 03:31:34.165824  7016 net.cpp:170] Setting up etlwise2a
I0718 03:31:34.165824  7016 net.cpp:177] Top shape: 64 16 64 64 (4194304)
I0718 03:31:34.166326  7016 net.cpp:185] Memory required for data: 448790784
I0718 03:31:34.166827  7016 layer_factory.hpp:77] Creating layer conv2
I0718 03:31:34.166827  7016 net.cpp:119] Creating Layer conv2
I0718 03:31:34.166827  7016 net.cpp:458] conv2 <- eltwise2a
I0718 03:31:34.167330  7016 net.cpp:432] conv2 -> conv2
I0718 03:31:34.170337  7016 net.cpp:170] Setting up conv2
I0718 03:31:34.170840  7016 net.cpp:177] Top shape: 64 64 31 31 (3936256)
I0718 03:31:34.171339  7016 net.cpp:185] Memory required for data: 464535808
I0718 03:31:34.171339  7016 layer_factory.hpp:77] Creating layer slice2
I0718 03:31:34.171840  7016 net.cpp:119] Creating Layer slice2
I0718 03:31:34.171840  7016 net.cpp:458] slice2 <- conv2
I0718 03:31:34.171840  7016 net.cpp:432] slice2 -> slice2_1
I0718 03:31:34.172343  7016 net.cpp:432] slice2 -> slice2_2
I0718 03:31:34.172343  7016 net.cpp:170] Setting up slice2
I0718 03:31:34.172843  7016 net.cpp:177] Top shape: 64 32 31 31 (1968128)
I0718 03:31:34.172843  7016 net.cpp:177] Top shape: 64 32 31 31 (1968128)
I0718 03:31:34.172843  7016 net.cpp:185] Memory required for data: 480280832
I0718 03:31:34.173344  7016 layer_factory.hpp:77] Creating layer etlwise2
I0718 03:31:34.173344  7016 net.cpp:119] Creating Layer etlwise2
I0718 03:31:34.173846  7016 net.cpp:458] etlwise2 <- slice2_1
I0718 03:31:34.173846  7016 net.cpp:458] etlwise2 <- slice2_2
I0718 03:31:34.173846  7016 net.cpp:432] etlwise2 -> eltwise2
I0718 03:31:34.174347  7016 net.cpp:170] Setting up etlwise2
I0718 03:31:34.174849  7016 net.cpp:177] Top shape: 64 32 31 31 (1968128)
I0718 03:31:34.174849  7016 net.cpp:185] Memory required for data: 488153344
I0718 03:31:34.174849  7016 layer_factory.hpp:77] Creating layer pool2
I0718 03:31:34.175350  7016 net.cpp:119] Creating Layer pool2
I0718 03:31:34.175350  7016 net.cpp:458] pool2 <- eltwise2
I0718 03:31:34.175350  7016 net.cpp:432] pool2 -> pool2
I0718 03:31:34.175853  7016 net.cpp:170] Setting up pool2
I0718 03:31:34.175853  7016 net.cpp:177] Top shape: 64 32 16 16 (524288)
I0718 03:31:34.175853  7016 net.cpp:185] Memory required for data: 490250496
I0718 03:31:34.176353  7016 layer_factory.hpp:77] Creating layer conv3a
I0718 03:31:34.176353  7016 net.cpp:119] Creating Layer conv3a
I0718 03:31:34.176353  7016 net.cpp:458] conv3a <- pool2
I0718 03:31:34.176353  7016 net.cpp:432] conv3a -> conv3a
I0718 03:31:34.178859  7016 net.cpp:170] Setting up conv3a
I0718 03:31:34.178859  7016 net.cpp:177] Top shape: 64 64 16 16 (1048576)
I0718 03:31:34.179862  7016 net.cpp:185] Memory required for data: 494444800
I0718 03:31:34.180363  7016 layer_factory.hpp:77] Creating layer slice3a
I0718 03:31:34.180865  7016 net.cpp:119] Creating Layer slice3a
I0718 03:31:34.180865  7016 net.cpp:458] slice3a <- conv3a
I0718 03:31:34.181365  7016 net.cpp:432] slice3a -> slice3a_1
I0718 03:31:34.181365  7016 net.cpp:432] slice3a -> slice3a_2
I0718 03:31:34.181365  7016 net.cpp:170] Setting up slice3a
I0718 03:31:34.181866  7016 net.cpp:177] Top shape: 64 32 16 16 (524288)
I0718 03:31:34.181866  7016 net.cpp:177] Top shape: 64 32 16 16 (524288)
I0718 03:31:34.182368  7016 net.cpp:185] Memory required for data: 498639104
I0718 03:31:34.182368  7016 layer_factory.hpp:77] Creating layer etlwise3a
I0718 03:31:34.182869  7016 net.cpp:119] Creating Layer etlwise3a
I0718 03:31:34.182869  7016 net.cpp:458] etlwise3a <- slice3a_1
I0718 03:31:34.183372  7016 net.cpp:458] etlwise3a <- slice3a_2
I0718 03:31:34.183372  7016 net.cpp:432] etlwise3a -> eltwise3a
I0718 03:31:34.183872  7016 net.cpp:170] Setting up etlwise3a
I0718 03:31:34.183872  7016 net.cpp:177] Top shape: 64 32 16 16 (524288)
I0718 03:31:34.183872  7016 net.cpp:185] Memory required for data: 500736256
I0718 03:31:34.184373  7016 layer_factory.hpp:77] Creating layer conv3
I0718 03:31:34.184373  7016 net.cpp:119] Creating Layer conv3
I0718 03:31:34.184875  7016 net.cpp:458] conv3 <- eltwise3a
I0718 03:31:34.184875  7016 net.cpp:432] conv3 -> conv3
I0718 03:31:34.187381  7016 net.cpp:170] Setting up conv3
I0718 03:31:34.187381  7016 net.cpp:177] Top shape: 64 128 14 14 (1605632)
I0718 03:31:34.187381  7016 net.cpp:185] Memory required for data: 507158784
I0718 03:31:34.187883  7016 layer_factory.hpp:77] Creating layer slice3
I0718 03:31:34.187883  7016 net.cpp:119] Creating Layer slice3
I0718 03:31:34.188385  7016 net.cpp:458] slice3 <- conv3
I0718 03:31:34.188886  7016 net.cpp:432] slice3 -> slice3_1
I0718 03:31:34.261580  7016 net.cpp:432] slice3 -> slice3_2
I0718 03:31:34.262080  7016 net.cpp:170] Setting up slice3
I0718 03:31:34.262080  7016 net.cpp:177] Top shape: 64 64 14 14 (802816)
I0718 03:31:34.262583  7016 net.cpp:177] Top shape: 64 64 14 14 (802816)
I0718 03:31:34.262583  7016 net.cpp:185] Memory required for data: 513581312
I0718 03:31:34.262583  7016 layer_factory.hpp:77] Creating layer etlwise3
I0718 03:31:34.263083  7016 net.cpp:119] Creating Layer etlwise3
I0718 03:31:34.263586  7016 net.cpp:458] etlwise3 <- slice3_1
I0718 03:31:34.263586  7016 net.cpp:458] etlwise3 <- slice3_2
I0718 03:31:34.263586  7016 net.cpp:432] etlwise3 -> eltwise3
I0718 03:31:34.264086  7016 net.cpp:170] Setting up etlwise3
I0718 03:31:34.264086  7016 net.cpp:177] Top shape: 64 64 14 14 (802816)
I0718 03:31:34.264587  7016 net.cpp:185] Memory required for data: 516792576
I0718 03:31:34.264587  7016 layer_factory.hpp:77] Creating layer pool3
I0718 03:31:34.265089  7016 net.cpp:119] Creating Layer pool3
I0718 03:31:34.265089  7016 net.cpp:458] pool3 <- eltwise3
I0718 03:31:34.265590  7016 net.cpp:432] pool3 -> pool3
I0718 03:31:34.265590  7016 net.cpp:170] Setting up pool3
I0718 03:31:34.265590  7016 net.cpp:177] Top shape: 64 64 7 7 (200704)
I0718 03:31:34.266093  7016 net.cpp:185] Memory required for data: 517595392
I0718 03:31:34.266093  7016 layer_factory.hpp:77] Creating layer conv4a
I0718 03:31:34.266593  7016 net.cpp:119] Creating Layer conv4a
I0718 03:31:34.266593  7016 net.cpp:458] conv4a <- pool3
I0718 03:31:34.267094  7016 net.cpp:432] conv4a -> conv4a
I0718 03:31:34.270103  7016 net.cpp:170] Setting up conv4a
I0718 03:31:34.271107  7016 net.cpp:177] Top shape: 64 128 7 7 (401408)
I0718 03:31:34.271606  7016 net.cpp:185] Memory required for data: 519201024
I0718 03:31:34.273113  7016 layer_factory.hpp:77] Creating layer slice4a
I0718 03:31:34.273613  7016 net.cpp:119] Creating Layer slice4a
I0718 03:31:34.274116  7016 net.cpp:458] slice4a <- conv4a
I0718 03:31:34.274616  7016 net.cpp:432] slice4a -> slice4a_1
I0718 03:31:34.275117  7016 net.cpp:432] slice4a -> slice4a_2
I0718 03:31:34.276120  7016 net.cpp:170] Setting up slice4a
I0718 03:31:34.276620  7016 net.cpp:177] Top shape: 64 64 7 7 (200704)
I0718 03:31:34.277122  7016 net.cpp:177] Top shape: 64 64 7 7 (200704)
I0718 03:31:34.277623  7016 net.cpp:185] Memory required for data: 520806656
I0718 03:31:34.278126  7016 layer_factory.hpp:77] Creating layer etlwise4a
I0718 03:31:34.278626  7016 net.cpp:119] Creating Layer etlwise4a
I0718 03:31:34.279127  7016 net.cpp:458] etlwise4a <- slice4a_1
I0718 03:31:34.279628  7016 net.cpp:458] etlwise4a <- slice4a_2
I0718 03:31:34.280632  7016 net.cpp:432] etlwise4a -> eltwise4a
I0718 03:31:34.281133  7016 net.cpp:170] Setting up etlwise4a
I0718 03:31:34.281635  7016 net.cpp:177] Top shape: 64 64 7 7 (200704)
I0718 03:31:34.282135  7016 net.cpp:185] Memory required for data: 521609472
I0718 03:31:34.282637  7016 layer_factory.hpp:77] Creating layer conv4
I0718 03:31:34.283136  7016 net.cpp:119] Creating Layer conv4
I0718 03:31:34.283638  7016 net.cpp:458] conv4 <- eltwise4a
I0718 03:31:34.284643  7016 net.cpp:432] conv4 -> conv4
I0718 03:31:34.287650  7016 net.cpp:170] Setting up conv4
I0718 03:31:34.287650  7016 net.cpp:177] Top shape: 64 96 7 7 (301056)
I0718 03:31:34.288651  7016 net.cpp:185] Memory required for data: 522813696
I0718 03:31:34.289656  7016 layer_factory.hpp:77] Creating layer slice4
I0718 03:31:34.290659  7016 net.cpp:119] Creating Layer slice4
I0718 03:31:34.291159  7016 net.cpp:458] slice4 <- conv4
I0718 03:31:34.291661  7016 net.cpp:432] slice4 -> slice4_1
I0718 03:31:34.292162  7016 net.cpp:432] slice4 -> slice4_2
I0718 03:31:34.292662  7016 net.cpp:170] Setting up slice4
I0718 03:31:34.293164  7016 net.cpp:177] Top shape: 64 48 7 7 (150528)
I0718 03:31:34.293666  7016 net.cpp:177] Top shape: 64 48 7 7 (150528)
I0718 03:31:34.294167  7016 net.cpp:185] Memory required for data: 524017920
I0718 03:31:34.294669  7016 layer_factory.hpp:77] Creating layer etlwise4
I0718 03:31:34.295171  7016 net.cpp:119] Creating Layer etlwise4
I0718 03:31:34.295671  7016 net.cpp:458] etlwise4 <- slice4_1
I0718 03:31:34.296174  7016 net.cpp:458] etlwise4 <- slice4_2
I0718 03:31:34.296674  7016 net.cpp:432] etlwise4 -> eltwise4
I0718 03:31:34.297175  7016 net.cpp:170] Setting up etlwise4
I0718 03:31:34.297677  7016 net.cpp:177] Top shape: 64 48 7 7 (150528)
I0718 03:31:34.297677  7016 net.cpp:185] Memory required for data: 524620032
I0718 03:31:34.297677  7016 layer_factory.hpp:77] Creating layer conv5a
I0718 03:31:34.297677  7016 net.cpp:119] Creating Layer conv5a
I0718 03:31:34.298177  7016 net.cpp:458] conv5a <- eltwise4
I0718 03:31:34.298177  7016 net.cpp:432] conv5a -> conv5a
I0718 03:31:34.300684  7016 net.cpp:170] Setting up conv5a
I0718 03:31:34.300684  7016 net.cpp:177] Top shape: 64 96 5 5 (153600)
I0718 03:31:34.301184  7016 net.cpp:185] Memory required for data: 525234432
I0718 03:31:34.301687  7016 layer_factory.hpp:77] Creating layer slice5a
I0718 03:31:34.301687  7016 net.cpp:119] Creating Layer slice5a
I0718 03:31:34.302187  7016 net.cpp:458] slice5a <- conv5a
I0718 03:31:34.302187  7016 net.cpp:432] slice5a -> slice5a_1
I0718 03:31:34.302688  7016 net.cpp:432] slice5a -> slice5a_2
I0718 03:31:34.302688  7016 net.cpp:170] Setting up slice5a
I0718 03:31:34.303189  7016 net.cpp:177] Top shape: 64 48 5 5 (76800)
I0718 03:31:34.303189  7016 net.cpp:177] Top shape: 64 48 5 5 (76800)
I0718 03:31:34.303691  7016 net.cpp:185] Memory required for data: 525848832
I0718 03:31:34.303691  7016 layer_factory.hpp:77] Creating layer etlwise5a
I0718 03:31:34.304193  7016 net.cpp:119] Creating Layer etlwise5a
I0718 03:31:34.304193  7016 net.cpp:458] etlwise5a <- slice5a_1
I0718 03:31:34.304693  7016 net.cpp:458] etlwise5a <- slice5a_2
I0718 03:31:34.304693  7016 net.cpp:432] etlwise5a -> eltwise5a
I0718 03:31:34.304693  7016 net.cpp:170] Setting up etlwise5a
I0718 03:31:34.305196  7016 net.cpp:177] Top shape: 64 48 5 5 (76800)
I0718 03:31:34.305697  7016 net.cpp:185] Memory required for data: 526156032
I0718 03:31:34.305697  7016 layer_factory.hpp:77] Creating layer conv5
I0718 03:31:34.306197  7016 net.cpp:119] Creating Layer conv5
I0718 03:31:34.306197  7016 net.cpp:458] conv5 <- eltwise5a
I0718 03:31:34.306699  7016 net.cpp:432] conv5 -> conv5
I0718 03:31:34.309232  7016 net.cpp:170] Setting up conv5
I0718 03:31:34.309232  7016 net.cpp:177] Top shape: 64 256 3 3 (147456)
I0718 03:31:34.309707  7016 net.cpp:185] Memory required for data: 526745856
I0718 03:31:34.309707  7016 layer_factory.hpp:77] Creating layer slice5
I0718 03:31:34.310209  7016 net.cpp:119] Creating Layer slice5
I0718 03:31:34.310209  7016 net.cpp:458] slice5 <- conv5
I0718 03:31:34.310710  7016 net.cpp:432] slice5 -> slice5_1
I0718 03:31:34.311213  7016 net.cpp:432] slice5 -> slice5_2
I0718 03:31:34.311213  7016 net.cpp:170] Setting up slice5
I0718 03:31:34.311712  7016 net.cpp:177] Top shape: 64 128 3 3 (73728)
I0718 03:31:34.311712  7016 net.cpp:177] Top shape: 64 128 3 3 (73728)
I0718 03:31:34.311712  7016 net.cpp:185] Memory required for data: 527335680
I0718 03:31:34.312214  7016 layer_factory.hpp:77] Creating layer etlwise5
I0718 03:31:34.312214  7016 net.cpp:119] Creating Layer etlwise5
I0718 03:31:34.312214  7016 net.cpp:458] etlwise5 <- slice5_1
I0718 03:31:34.312716  7016 net.cpp:458] etlwise5 <- slice5_2
I0718 03:31:34.312716  7016 net.cpp:432] etlwise5 -> eltwise5
I0718 03:31:34.313216  7016 net.cpp:170] Setting up etlwise5
I0718 03:31:34.313216  7016 net.cpp:177] Top shape: 64 128 3 3 (73728)
I0718 03:31:34.313719  7016 net.cpp:185] Memory required for data: 527630592
I0718 03:31:34.313719  7016 layer_factory.hpp:77] Creating layer pool4
I0718 03:31:34.314220  7016 net.cpp:119] Creating Layer pool4
I0718 03:31:34.314220  7016 net.cpp:458] pool4 <- eltwise5
I0718 03:31:34.314721  7016 net.cpp:432] pool4 -> pool4
I0718 03:31:34.315222  7016 net.cpp:170] Setting up pool4
I0718 03:31:34.315222  7016 net.cpp:177] Top shape: 64 128 1 1 (8192)
I0718 03:31:34.315222  7016 net.cpp:185] Memory required for data: 527663360
I0718 03:31:34.315723  7016 layer_factory.hpp:77] Creating layer slice_fc1
I0718 03:31:34.315723  7016 net.cpp:119] Creating Layer slice_fc1
I0718 03:31:34.316226  7016 net.cpp:458] slice_fc1 <- pool4
I0718 03:31:34.316226  7016 net.cpp:432] slice_fc1 -> slice_fc1_1
I0718 03:31:34.316726  7016 net.cpp:432] slice_fc1 -> slice_fc1_2
I0718 03:31:34.317729  7016 net.cpp:170] Setting up slice_fc1
I0718 03:31:34.317729  7016 net.cpp:177] Top shape: 64 64 1 1 (4096)
I0718 03:31:34.318230  7016 net.cpp:177] Top shape: 64 64 1 1 (4096)
I0718 03:31:34.318230  7016 net.cpp:185] Memory required for data: 527696128
I0718 03:31:34.318230  7016 layer_factory.hpp:77] Creating layer etlwise_fc1
I0718 03:31:34.318732  7016 net.cpp:119] Creating Layer etlwise_fc1
I0718 03:31:34.318732  7016 net.cpp:458] etlwise_fc1 <- slice_fc1_1
I0718 03:31:34.319232  7016 net.cpp:458] etlwise_fc1 <- slice_fc1_2
I0718 03:31:34.319232  7016 net.cpp:432] etlwise_fc1 -> eltwise_fc1
I0718 03:31:34.319733  7016 net.cpp:170] Setting up etlwise_fc1
I0718 03:31:34.319733  7016 net.cpp:177] Top shape: 64 64 1 1 (4096)
I0718 03:31:34.320235  7016 net.cpp:185] Memory required for data: 527712512
I0718 03:31:34.320235  7016 layer_factory.hpp:77] Creating layer drop1
I0718 03:31:34.320737  7016 net.cpp:119] Creating Layer drop1
I0718 03:31:34.320737  7016 net.cpp:458] drop1 <- eltwise_fc1
I0718 03:31:34.320737  7016 net.cpp:417] drop1 -> eltwise_fc1 (in-place)
I0718 03:31:34.321238  7016 net.cpp:170] Setting up drop1
I0718 03:31:34.321238  7016 net.cpp:177] Top shape: 64 64 1 1 (4096)
I0718 03:31:34.321740  7016 net.cpp:185] Memory required for data: 527728896
I0718 03:31:34.321740  7016 layer_factory.hpp:77] Creating layer fc2
I0718 03:31:34.322242  7016 net.cpp:119] Creating Layer fc2
I0718 03:31:34.322242  7016 net.cpp:458] fc2 <- eltwise_fc1
I0718 03:31:34.322742  7016 net.cpp:432] fc2 -> fc2
I0718 03:31:34.322742  7016 net.cpp:170] Setting up fc2
I0718 03:31:34.322742  7016 net.cpp:177] Top shape: 64 9 (576)
I0718 03:31:34.323245  7016 net.cpp:185] Memory required for data: 527731200
I0718 03:31:34.323245  7016 layer_factory.hpp:77] Creating layer softmax_loss
I0718 03:31:34.323745  7016 net.cpp:119] Creating Layer softmax_loss
I0718 03:31:34.323745  7016 net.cpp:458] softmax_loss <- fc2
I0718 03:31:34.324246  7016 net.cpp:458] softmax_loss <- label
I0718 03:31:34.324246  7016 net.cpp:432] softmax_loss -> softmax_loss
…
I0718 03:31:34.337280  7016 net.cpp:344] The NetState phase (1) differed from the phase (0) specified by a rule in layer data
I0718 03:31:34.337280  7016 net.cpp:76] Initializing net from parameters: 
name: "LLFace"
state {
  phase: TEST
}
layer {
  name: "data"
  type: "Data"
  top: "data"
  top: "label"
  include {
    phase: TEST
  }
  transform_param {
    scale: 0.0078125
    mirror: true
    crop_size: 128
    mean_value: 104
    mean_value: 117
    mean_value: 124
  }
  data_param {
    source: "D:/Research/LoveLiveFaceRecognition/valLevelDB"
    batch_size: 64
    backend: LEVELDB
  }
}
layer {
  name: "conv1"
  type: "Convolution"
  bottom: "data"
  top: "conv1"
  param {
    lr_mult: 1
    decay_mult: 1
  }
  param {
    lr_mult: 2
    decay_mult: 0
  }
  convolution_param {
    num_output: 32
    pad: 2
    kernel_size: 5
    stride: 1
    weight_filler {
      type: "xavier"
    }
    bias_filler {
      type: "constant"
      value: 0.1
    }
  }
}
layer {
  name: "slice1"
  type: "Slice"
  bottom: "conv1"
  top: "slice1_1"
  top: "slice1_2"
  slice_param {
    slice_dim: 1
  }
}
layer {
  name: "etlwise1"
  type: "Eltwise"
  bottom: "slice1_1"
  bottom: "slice1_2"
  top: "eltwise1"
  eltwise_param {
    operation: MAX
  }
}
layer {
  name: "pool1"
  type: "Pooling"
  bottom: "eltwise1"
  top: "pool1"
  pooling_param {
    pool: MAX
    kernel_size: 2
    stride: 2
  }
}
layer {
  name: "conv2a"
  type: "Convolution"
  bottom: "pool1"
  top: "conv2a"
  param {
    lr_mult: 1
    decay_mult: 1
  }
  param {
    lr_mult: 2
    decay_mult: 0
  }
  convolution_param {
    num_output: 32
    pad: 1
    kernel_size: 3
    stride: 1
    weight_filler {
      type: "xavier"
    }
    bias_filler {
      type: "constant"
      value: 0.1
    }
  }
}
layer {
  name: "slice2a"
  type: "Slice"
  bottom: "conv2a"
  top: "slice2a_1"
  top: "slice2a_2"
  slice_param {
    slice_dim: 1
  }
}
layer {
  name: "etlwise2a"
  type: "Eltwise"
  bottom: "slice2a_1"
  bottom: "slice2a_2"
  top: "eltwise2a"
  eltwise_param {
    operation: MAX
  }
}
layer {
  name: "conv2"
  type: "Convolution"
  bottom: "eltwise2a"
  top: "conv2"
  param {
    lr_mult: 1
    decay_mult: 1
  }
  param {
    lr_mult: 2
    decay_mult: 0
  }
  convolution_param {
    num_output: 64
    kernel_size: 3
    stride: 2
    weight_filler {
      type: "xavier"
    }
    bias_filler {
      type: "constant"
      value: 0.1
    }
  }
}
layer {
  name: "slice2"
  type: "Slice"
  bottom: "conv2"
  top: "slice2_1"
  top: "slice2_2"
  slice_param {
    slice_dim: 1
  }
}
layer {
  name: "etlwise2"
  type: "Eltwise"
  bottom: "slice2_1"
  bottom: "slice2_2"
  top: "eltwise2"
  eltwise_param {
    operation: MAX
  }
}
layer {
  name: "pool2"
  type: "Pooling"
  bottom: "eltwise2"
  top: "pool2"
  pooling_param {
    pool: MAX
    kernel_size: 2
    stride: 2
  }
}
layer {
  name: "conv3a"
  type: "Convolution"
  bottom: "pool2"
  top: "conv3a"
  param {
    lr_mult: 1
    decay_mult: 1
  }
  param {
    lr_mult: 2
    decay_mult: 0
  }
  convolution_param {
    num_output: 64
    kernel_size: 1
    stride: 1
    weight_filler {
      type: "xavier"
    }
    bias_filler {
      type: "constant"
      value: 0.1
    }
  }
}
layer {
  name: "slice3a"
  type: "Slice"
  bottom: "conv3a"
  top: "slice3a_1"
  top: "slice3a_2"
  slice_param {
    slice_dim: 1
  }
}
layer {
  name: "etlwise3a"
  type: "Eltwise"
  bottom: "slice3a_1"
  bottom: "slice3a_2"
  top: "eltwise3a"
  eltwise_param {
    operation: MAX
  }
}
layer {
  name: "conv3"
  type: "Convolution"
  bottom: "eltwise3a"
  top: "conv3"
  param {
    lr_mult: 1
    decay_mult: 1
  }
  param {
    lr_mult: 2
    decay_mult: 0
  }
  convolution_param {
    num_output: 128
    kernel_size: 3
    stride: 1
    weight_filler {
      type: "xavier"
    }
    bias_filler {
      type: "constant"
      value: 0.1
    }
  }
}
layer {
  name: "slice3"
  type: "Slice"
  bottom: "conv3"
  top: "slice3_1"
  top: "slice3_2"
  slice_param {
    slice_dim: 1
  }
}
layer {
  name: "etlwise3"
  type: "Eltwise"
  bottom: "slice3_1"
  bottom: "slice3_2"
  top: "eltwise3"
  eltwise_param {
    operation: MAX
  }
}
layer {
  name: "pool3"
  type: "Pooling"
  bottom: "eltwise3"
  top: "pool3"
  pooling_param {
    pool: MAX
    kernel_size: 2
    stride: 2
  }
}
layer {
  name: "conv4a"
  type: "Convolution"
  bottom: "pool3"
  top: "conv4a"
  param {
    lr_mult: 1
    decay_mult: 1
  }
  param {
    lr_mult: 2
    decay_mult: 0
  }
  convolution_param {
    num_output: 128
    kernel_size: 1
    stride: 1
    weight_filler {
      type: "xavier"
    }
    bias_filler {
      type: "constant"
      value: 0.1
    }
  }
}
layer {
  name: "slice4a"
  type: "Slice"
  bottom: "conv4a"
  top: "slice4a_1"
  top: "slice4a_2"
  slice_param {
    slice_dim: 1
  }
}
layer {
  name: "etlwise4a"
  type: "Eltwise"
  bottom: "slice4a_1"
  bottom: "slice4a_2"
  top: "eltwise4a"
  eltwise_param {
    operation: MAX
  }
}
layer {
  name: "conv4"
  type: "Convolution"
  bottom: "eltwise4a"
  top: "conv4"
  param {
    lr_mult: 1
    decay_mult: 1
  }
  param {
    lr_mult: 2
    decay_mult: 0
  }
  convolution_param {
    num_output: 96
    kernel_size: 1
    stride: 1
    weight_filler {
      type: "xavier"
    }
    bias_filler {
      type: "constant"
      value: 0.1
    }
  }
}
layer {
  name: "slice4"
  type: "Slice"
  bottom: "conv4"
  top: "slice4_1"
  top: "slice4_2"
  slice_param {
    slice_dim: 1
  }
}
layer {
  name: "etlwise4"
  type: "Eltwise"
  bottom: "slice4_1"
  bottom: "slice4_2"
  top: "eltwise4"
  eltwise_param {
    operation: MAX
  }
}
layer {
  name: "conv5a"
  type: "Convolution"
  bottom: "eltwise4"
  top: "conv5a"
  param {
    lr_mult: 1
    decay_mult: 1
  }
  param {
    lr_mult: 2
    decay_mult: 0
  }
  convolution_param {
    num_output: 96
    kernel_size: 3
    stride: 1
    weight_filler {
      type: "xavier"
    }
    bias_filler {
      type: "constant"
      value: 0.1
    }
  }
}
layer {
  name: "slice5a"
  type: "Slice"
  bottom: "conv5a"
  top: "slice5a_1"
  top: "slice5a_2"
  slice_param {
    slice_dim: 1
  }
}
layer {
  name: "etlwise5a"
  type: "Eltwise"
  bottom: "slice5a_1"
  bottom: "slice5a_2"
  top: "eltwise5a"
  eltwise_param {
    operation: MAX
  }
}
layer {
  name: "conv5"
  type: "Convolution"
  bottom: "eltwise5a"
  top: "conv5"
  param {
    lr_mult: 1
    decay_mult: 1
  }
  param {
    lr_mult: 2
    decay_mult: 0
  }
  convolution_param {
    num_output: 256
    kernel_size: 3
    stride: 1
    weight_filler {
      type: "xavier"
    }
    bias_filler {
      type: "constant"
      value: 0.1
    }
  }
}
layer {
  name: "slice5"
  type: "Slice"
  bottom: "conv5"
  top: "slice5_1"
  top: "slice5_2"
  slice_param {
    slice_dim: 1
  }
}
layer {
  name: "etlwise5"
  type: "Eltwise"
  bottom: "slice5_1"
  bottom: "slice5_2"
  top: "eltwise5"
  eltwise_param {
    operation: MAX
  }
}
layer {
  name: "pool4"
  type: "Pooling"
  bottom: "eltwise5"
  top: "pool4"
  pooling_param {
    pool: AVE
    kernel_size: 3
    stride: 3
  }
}
layer {
  name: "slice_fc1"
  type: "Slice"
  bottom: "pool4"
  top: "slice_fc1_1"
  top: "slice_fc1_2"
  slice_param {
    slice_dim: 1
  }
}
layer {
  name: "etlwise_fc1"
  type: "Eltwise"
  bottom: "slice_fc1_1"
  bottom: "slice_fc1_2"
  top: "eltwise_fc1"
  eltwise_param {
    operation: MAX
  }
}
layer {
  name: "drop1"
  type: "Dropout"
  bottom: "eltwise_fc1"
  top: "eltwise_fc1"
  dropout_param {
    dropout_ratio: 0.7
  }
}
layer {
  name: "fc2"
  type: "InnerProduct"
  bottom: "eltwise_fc1"
  top: "fc2"
  inner_product_param {
    num_output: 9
    weight_filler {
      type: "xavier"
    }
    bias_filler {
      type: "constant"
      value: 0.1
    }
  }
}
layer {
  name: "softmax_loss"
  type: "SoftmaxWithLoss"
  bottom: "fc2"
  bottom: "label"
  top: "softmax_loss"
}
layer {
  name: "accuracy_top1"
  type: "Accuracy"
  bottom: "fc2"
  bottom: "label"
  top: "accuracy_top1"
  include {
    phase: TEST
  }
}
I0718 03:31:34.339287  7016 layer_factory.hpp:77] Creating layer data
I0718 03:31:34.339287  7016 net.cpp:119] Creating Layer data
I0718 03:31:34.339287  7016 net.cpp:432] data -> data
I0718 03:31:34.339787  7016 net.cpp:432] data -> label
I0718 03:31:34.341794 13816 db_leveldb.cpp:18] Opened leveldb D:/Research/LoveLiveFaceRecognition/valLevelDB
I0718 03:31:34.342293  7016 data_layer.cpp:41] output data size: 64,3,128,128
I0718 03:31:34.365857  7016 net.cpp:170] Setting up data
I0718 03:31:34.365857  7016 net.cpp:177] Top shape: 64 3 128 128 (3145728)
I0718 03:31:34.366358  7016 net.cpp:177] Top shape: 64 (64)
I0718 03:31:34.367362  7016 net.cpp:185] Memory required for data: 12583168
I0718 03:31:34.367362  7016 layer_factory.hpp:77] Creating layer label_data_1_split
I0718 03:31:34.367863  7016 net.cpp:119] Creating Layer label_data_1_split
I0718 03:31:34.367863  7016 net.cpp:458] label_data_1_split <- label
I0718 03:31:34.368365  7016 net.cpp:432] label_data_1_split -> label_data_1_split_0
I0718 03:31:34.368365  7016 net.cpp:432] label_data_1_split -> label_data_1_split_1
I0718 03:31:34.369868  7016 net.cpp:170] Setting up label_data_1_split
I0718 03:31:34.369868  7016 net.cpp:177] Top shape: 64 (64)
I0718 03:31:34.369868  7016 net.cpp:177] Top shape: 64 (64)
I0718 03:31:34.370369  7016 net.cpp:185] Memory required for data: 12583680
I0718 03:31:34.370369  7016 layer_factory.hpp:77] Creating layer conv1
I0718 03:31:34.370870  7016 net.cpp:119] Creating Layer conv1
I0718 03:31:34.370870  7016 net.cpp:458] conv1 <- data
I0718 03:31:34.371372  7016 net.cpp:432] conv1 -> conv1
I0718 03:31:34.372876  7016 net.cpp:170] Setting up conv1
I0718 03:31:34.372876  7016 net.cpp:177] Top shape: 64 32 128 128 (33554432)
I0718 03:31:34.373378  7016 net.cpp:185] Memory required for data: 146801408
I0718 03:31:34.373378  7016 layer_factory.hpp:77] Creating layer slice1
I0718 03:31:34.373878  7016 net.cpp:119] Creating Layer slice1
I0718 03:31:34.373878  7016 net.cpp:458] slice1 <- conv1
I0718 03:31:34.374380  7016 net.cpp:432] slice1 -> slice1_1
I0718 03:31:34.374380  7016 net.cpp:432] slice1 -> slice1_2
I0718 03:31:34.374881  7016 net.cpp:170] Setting up slice1
I0718 03:31:34.375383  7016 net.cpp:177] Top shape: 64 16 128 128 (16777216)
I0718 03:31:34.375885  7016 net.cpp:177] Top shape: 64 16 128 128 (16777216)
I0718 03:31:34.375885  7016 net.cpp:185] Memory required for data: 281019136
I0718 03:31:34.376384  7016 layer_factory.hpp:77] Creating layer etlwise1
I0718 03:31:34.376384  7016 net.cpp:119] Creating Layer etlwise1
I0718 03:31:34.376886  7016 net.cpp:458] etlwise1 <- slice1_1
I0718 03:31:34.377388  7016 net.cpp:458] etlwise1 <- slice1_2
I0718 03:31:34.377888  7016 net.cpp:432] etlwise1 -> eltwise1
I0718 03:31:34.377888  7016 net.cpp:170] Setting up etlwise1
I0718 03:31:34.377888  7016 net.cpp:177] Top shape: 64 16 128 128 (16777216)
I0718 03:31:34.378389  7016 net.cpp:185] Memory required for data: 348128000
I0718 03:31:34.378389  7016 layer_factory.hpp:77] Creating layer pool1
I0718 03:31:34.378891  7016 net.cpp:119] Creating Layer pool1
I0718 03:31:34.378891  7016 net.cpp:458] pool1 <- eltwise1
I0718 03:31:34.379392  7016 net.cpp:432] pool1 -> pool1
I0718 03:31:34.380897  7016 net.cpp:170] Setting up pool1
I0718 03:31:34.380897  7016 net.cpp:177] Top shape: 64 16 64 64 (4194304)
I0718 03:31:34.381398  7016 net.cpp:185] Memory required for data: 364905216
I0718 03:31:34.381398  7016 layer_factory.hpp:77] Creating layer conv2a
I0718 03:31:34.381899  7016 net.cpp:119] Creating Layer conv2a
I0718 03:31:34.381899  7016 net.cpp:458] conv2a <- pool1
I0718 03:31:34.382400  7016 net.cpp:432] conv2a -> conv2a
I0718 03:31:34.383904  7016 net.cpp:170] Setting up conv2a
I0718 03:31:34.384405  7016 net.cpp:177] Top shape: 64 32 64 64 (8388608)
I0718 03:31:34.384907  7016 net.cpp:185] Memory required for data: 398459648
I0718 03:31:34.385408  7016 layer_factory.hpp:77] Creating layer slice2a
I0718 03:31:34.385408  7016 net.cpp:119] Creating Layer slice2a
I0718 03:31:34.385910  7016 net.cpp:458] slice2a <- conv2a
I0718 03:31:34.385910  7016 net.cpp:432] slice2a -> slice2a_1
I0718 03:31:34.386411  7016 net.cpp:432] slice2a -> slice2a_2
I0718 03:31:34.386411  7016 net.cpp:170] Setting up slice2a
I0718 03:31:34.386912  7016 net.cpp:177] Top shape: 64 16 64 64 (4194304)
I0718 03:31:34.386912  7016 net.cpp:177] Top shape: 64 16 64 64 (4194304)
I0718 03:31:34.387414  7016 net.cpp:185] Memory required for data: 432014080
I0718 03:31:34.387414  7016 layer_factory.hpp:77] Creating layer etlwise2a
I0718 03:31:34.387915  7016 net.cpp:119] Creating Layer etlwise2a
I0718 03:31:34.387915  7016 net.cpp:458] etlwise2a <- slice2a_1
I0718 03:31:34.388417  7016 net.cpp:458] etlwise2a <- slice2a_2
I0718 03:31:34.388417  7016 net.cpp:432] etlwise2a -> eltwise2a
I0718 03:31:34.388918  7016 net.cpp:170] Setting up etlwise2a
I0718 03:31:34.388918  7016 net.cpp:177] Top shape: 64 16 64 64 (4194304)
I0718 03:31:34.389420  7016 net.cpp:185] Memory required for data: 448791296
I0718 03:31:34.389420  7016 layer_factory.hpp:77] Creating layer conv2
I0718 03:31:34.389920  7016 net.cpp:119] Creating Layer conv2
I0718 03:31:34.389920  7016 net.cpp:458] conv2 <- eltwise2a
I0718 03:31:34.389920  7016 net.cpp:432] conv2 -> conv2
I0718 03:31:34.393931  7016 net.cpp:170] Setting up conv2
I0718 03:31:34.393931  7016 net.cpp:177] Top shape: 64 64 31 31 (3936256)
I0718 03:31:34.394433  7016 net.cpp:185] Memory required for data: 464536320
I0718 03:31:34.394433  7016 layer_factory.hpp:77] Creating layer slice2
I0718 03:31:34.394935  7016 net.cpp:119] Creating Layer slice2
I0718 03:31:34.394935  7016 net.cpp:458] slice2 <- conv2
I0718 03:31:34.394935  7016 net.cpp:432] slice2 -> slice2_1
I0718 03:31:34.395437  7016 net.cpp:432] slice2 -> slice2_2
I0718 03:31:34.395437  7016 net.cpp:170] Setting up slice2
I0718 03:31:34.395936  7016 net.cpp:177] Top shape: 64 32 31 31 (1968128)
I0718 03:31:34.395936  7016 net.cpp:177] Top shape: 64 32 31 31 (1968128)
I0718 03:31:34.396438  7016 net.cpp:185] Memory required for data: 480281344
I0718 03:31:34.396438  7016 layer_factory.hpp:77] Creating layer etlwise2
I0718 03:31:34.396438  7016 net.cpp:119] Creating Layer etlwise2
I0718 03:31:34.396438  7016 net.cpp:458] etlwise2 <- slice2_1
I0718 03:31:34.396939  7016 net.cpp:458] etlwise2 <- slice2_2
I0718 03:31:34.397441  7016 net.cpp:432] etlwise2 -> eltwise2
I0718 03:31:34.397441  7016 net.cpp:170] Setting up etlwise2
I0718 03:31:34.397943  7016 net.cpp:177] Top shape: 64 32 31 31 (1968128)
I0718 03:31:34.397943  7016 net.cpp:185] Memory required for data: 488153856
I0718 03:31:34.398444  7016 layer_factory.hpp:77] Creating layer pool2
I0718 03:31:34.398444  7016 net.cpp:119] Creating Layer pool2
I0718 03:31:34.398946  7016 net.cpp:458] pool2 <- eltwise2
I0718 03:31:34.398946  7016 net.cpp:432] pool2 -> pool2
I0718 03:31:34.398946  7016 net.cpp:170] Setting up pool2
I0718 03:31:34.399447  7016 net.cpp:177] Top shape: 64 32 16 16 (524288)
I0718 03:31:34.399447  7016 net.cpp:185] Memory required for data: 490251008
I0718 03:31:34.399948  7016 layer_factory.hpp:77] Creating layer conv3a
I0718 03:31:34.399948  7016 net.cpp:119] Creating Layer conv3a
I0718 03:31:34.400449  7016 net.cpp:458] conv3a <- pool2
I0718 03:31:34.400449  7016 net.cpp:432] conv3a -> conv3a
I0718 03:31:34.403957  7016 net.cpp:170] Setting up conv3a
I0718 03:31:34.403957  7016 net.cpp:177] Top shape: 64 64 16 16 (1048576)
I0718 03:31:34.404459  7016 net.cpp:185] Memory required for data: 494445312
I0718 03:31:34.404459  7016 layer_factory.hpp:77] Creating layer slice3a
I0718 03:31:34.404459  7016 net.cpp:119] Creating Layer slice3a
I0718 03:31:34.404961  7016 net.cpp:458] slice3a <- conv3a
I0718 03:31:34.404961  7016 net.cpp:432] slice3a -> slice3a_1
I0718 03:31:34.405462  7016 net.cpp:432] slice3a -> slice3a_2
I0718 03:31:34.405462  7016 net.cpp:170] Setting up slice3a
I0718 03:31:34.405963  7016 net.cpp:177] Top shape: 64 32 16 16 (524288)
I0718 03:31:34.405963  7016 net.cpp:177] Top shape: 64 32 16 16 (524288)
I0718 03:31:34.405963  7016 net.cpp:185] Memory required for data: 498639616
I0718 03:31:34.406464  7016 layer_factory.hpp:77] Creating layer etlwise3a
I0718 03:31:34.406464  7016 net.cpp:119] Creating Layer etlwise3a
I0718 03:31:34.406464  7016 net.cpp:458] etlwise3a <- slice3a_1
I0718 03:31:34.406464  7016 net.cpp:458] etlwise3a <- slice3a_2
I0718 03:31:34.406965  7016 net.cpp:432] etlwise3a -> eltwise3a
I0718 03:31:34.406965  7016 net.cpp:170] Setting up etlwise3a
I0718 03:31:34.407467  7016 net.cpp:177] Top shape: 64 32 16 16 (524288)
I0718 03:31:34.407467  7016 net.cpp:185] Memory required for data: 500736768
I0718 03:31:34.407969  7016 layer_factory.hpp:77] Creating layer conv3
I0718 03:31:34.407969  7016 net.cpp:119] Creating Layer conv3
I0718 03:31:34.408470  7016 net.cpp:458] conv3 <- eltwise3a
I0718 03:31:34.408470  7016 net.cpp:432] conv3 -> conv3
I0718 03:31:34.410475  7016 net.cpp:170] Setting up conv3
I0718 03:31:34.410475  7016 net.cpp:177] Top shape: 64 128 14 14 (1605632)
I0718 03:31:34.411479  7016 net.cpp:185] Memory required for data: 507159296
I0718 03:31:34.411980  7016 layer_factory.hpp:77] Creating layer slice3
I0718 03:31:34.412480  7016 net.cpp:119] Creating Layer slice3
I0718 03:31:34.412480  7016 net.cpp:458] slice3 <- conv3
I0718 03:31:34.412982  7016 net.cpp:432] slice3 -> slice3_1
I0718 03:31:34.412982  7016 net.cpp:432] slice3 -> slice3_2
I0718 03:31:34.413485  7016 net.cpp:170] Setting up slice3
I0718 03:31:34.413485  7016 net.cpp:177] Top shape: 64 64 14 14 (802816)
I0718 03:31:34.413985  7016 net.cpp:177] Top shape: 64 64 14 14 (802816)
I0718 03:31:34.413985  7016 net.cpp:185] Memory required for data: 513581824
I0718 03:31:34.414487  7016 layer_factory.hpp:77] Creating layer etlwise3
I0718 03:31:34.414487  7016 net.cpp:119] Creating Layer etlwise3
I0718 03:31:34.414988  7016 net.cpp:458] etlwise3 <- slice3_1
I0718 03:31:34.414988  7016 net.cpp:458] etlwise3 <- slice3_2
I0718 03:31:34.415489  7016 net.cpp:432] etlwise3 -> eltwise3
I0718 03:31:34.415489  7016 net.cpp:170] Setting up etlwise3
I0718 03:31:34.415990  7016 net.cpp:177] Top shape: 64 64 14 14 (802816)
I0718 03:31:34.415990  7016 net.cpp:185] Memory required for data: 516793088
I0718 03:31:34.415990  7016 layer_factory.hpp:77] Creating layer pool3
I0718 03:31:34.416491  7016 net.cpp:119] Creating Layer pool3
I0718 03:31:34.416993  7016 net.cpp:458] pool3 <- eltwise3
I0718 03:31:34.416993  7016 net.cpp:432] pool3 -> pool3
I0718 03:31:34.416993  7016 net.cpp:170] Setting up pool3
I0718 03:31:34.417495  7016 net.cpp:177] Top shape: 64 64 7 7 (200704)
I0718 03:31:34.417495  7016 net.cpp:185] Memory required for data: 517595904
I0718 03:31:34.417995  7016 layer_factory.hpp:77] Creating layer conv4a
I0718 03:31:34.418496  7016 net.cpp:119] Creating Layer conv4a
I0718 03:31:34.418496  7016 net.cpp:458] conv4a <- pool3
I0718 03:31:34.418998  7016 net.cpp:432] conv4a -> conv4a
I0718 03:31:34.421003  7016 net.cpp:170] Setting up conv4a
I0718 03:31:34.421003  7016 net.cpp:177] Top shape: 64 128 7 7 (401408)
I0718 03:31:34.428021  7016 net.cpp:185] Memory required for data: 519201536
I0718 03:31:34.428021  7016 layer_factory.hpp:77] Creating layer slice4a
I0718 03:31:34.428524  7016 net.cpp:119] Creating Layer slice4a
I0718 03:31:34.428524  7016 net.cpp:458] slice4a <- conv4a
I0718 03:31:34.428524  7016 net.cpp:432] slice4a -> slice4a_1
I0718 03:31:34.428524  7016 net.cpp:432] slice4a -> slice4a_2
I0718 03:31:34.429525  7016 net.cpp:170] Setting up slice4a
I0718 03:31:34.429525  7016 net.cpp:177] Top shape: 64 64 7 7 (200704)
I0718 03:31:34.430027  7016 net.cpp:177] Top shape: 64 64 7 7 (200704)
I0718 03:31:34.430027  7016 net.cpp:185] Memory required for data: 520807168
I0718 03:31:34.430529  7016 layer_factory.hpp:77] Creating layer etlwise4a
I0718 03:31:34.430529  7016 net.cpp:119] Creating Layer etlwise4a
I0718 03:31:34.431031  7016 net.cpp:458] etlwise4a <- slice4a_1
I0718 03:31:34.431031  7016 net.cpp:458] etlwise4a <- slice4a_2
I0718 03:31:34.431532  7016 net.cpp:432] etlwise4a -> eltwise4a
I0718 03:31:34.431532  7016 net.cpp:170] Setting up etlwise4a
I0718 03:31:34.432034  7016 net.cpp:177] Top shape: 64 64 7 7 (200704)
I0718 03:31:34.432034  7016 net.cpp:185] Memory required for data: 521609984
I0718 03:31:34.432535  7016 layer_factory.hpp:77] Creating layer conv4
I0718 03:31:34.432535  7016 net.cpp:119] Creating Layer conv4
I0718 03:31:34.433037  7016 net.cpp:458] conv4 <- eltwise4a
I0718 03:31:34.433037  7016 net.cpp:432] conv4 -> conv4
I0718 03:31:34.435041  7016 net.cpp:170] Setting up conv4
I0718 03:31:34.435041  7016 net.cpp:177] Top shape: 64 96 7 7 (301056)
I0718 03:31:34.435041  7016 net.cpp:185] Memory required for data: 522814208
I0718 03:31:34.435542  7016 layer_factory.hpp:77] Creating layer slice4
I0718 03:31:34.435542  7016 net.cpp:119] Creating Layer slice4
I0718 03:31:34.435542  7016 net.cpp:458] slice4 <- conv4
I0718 03:31:34.436044  7016 net.cpp:432] slice4 -> slice4_1
I0718 03:31:34.436044  7016 net.cpp:432] slice4 -> slice4_2
I0718 03:31:34.436044  7016 net.cpp:170] Setting up slice4
I0718 03:31:34.436545  7016 net.cpp:177] Top shape: 64 48 7 7 (150528)
I0718 03:31:34.436545  7016 net.cpp:177] Top shape: 64 48 7 7 (150528)
I0718 03:31:34.436545  7016 net.cpp:185] Memory required for data: 524018432
I0718 03:31:34.436545  7016 layer_factory.hpp:77] Creating layer etlwise4
I0718 03:31:34.437047  7016 net.cpp:119] Creating Layer etlwise4
I0718 03:31:34.437047  7016 net.cpp:458] etlwise4 <- slice4_1
I0718 03:31:34.437047  7016 net.cpp:458] etlwise4 <- slice4_2
I0718 03:31:34.438050  7016 net.cpp:432] etlwise4 -> eltwise4
I0718 03:31:34.460108  7016 net.cpp:170] Setting up etlwise4
I0718 03:31:34.460108  7016 net.cpp:177] Top shape: 64 48 7 7 (150528)
I0718 03:31:34.460608  7016 net.cpp:185] Memory required for data: 524620544
I0718 03:31:34.461110  7016 layer_factory.hpp:77] Creating layer conv5a
I0718 03:31:34.461110  7016 net.cpp:119] Creating Layer conv5a
I0718 03:31:34.461611  7016 net.cpp:458] conv5a <- eltwise4
I0718 03:31:34.461611  7016 net.cpp:432] conv5a -> conv5a
I0718 03:31:34.463616  7016 net.cpp:170] Setting up conv5a
I0718 03:31:34.463616  7016 net.cpp:177] Top shape: 64 96 5 5 (153600)
I0718 03:31:34.463616  7016 net.cpp:185] Memory required for data: 525234944
I0718 03:31:34.464118  7016 layer_factory.hpp:77] Creating layer slice5a
I0718 03:31:34.464118  7016 net.cpp:119] Creating Layer slice5a
I0718 03:31:34.464620  7016 net.cpp:458] slice5a <- conv5a
I0718 03:31:34.464620  7016 net.cpp:432] slice5a -> slice5a_1
I0718 03:31:34.464620  7016 net.cpp:432] slice5a -> slice5a_2
I0718 03:31:34.465121  7016 net.cpp:170] Setting up slice5a
I0718 03:31:34.465121  7016 net.cpp:177] Top shape: 64 48 5 5 (76800)
I0718 03:31:34.465622  7016 net.cpp:177] Top shape: 64 48 5 5 (76800)
I0718 03:31:34.465622  7016 net.cpp:185] Memory required for data: 525849344
I0718 03:31:34.466123  7016 layer_factory.hpp:77] Creating layer etlwise5a
I0718 03:31:34.466123  7016 net.cpp:119] Creating Layer etlwise5a
I0718 03:31:34.466624  7016 net.cpp:458] etlwise5a <- slice5a_1
I0718 03:31:34.466624  7016 net.cpp:458] etlwise5a <- slice5a_2
I0718 03:31:34.467126  7016 net.cpp:432] etlwise5a -> eltwise5a
I0718 03:31:34.467126  7016 net.cpp:170] Setting up etlwise5a
I0718 03:31:34.467628  7016 net.cpp:177] Top shape: 64 48 5 5 (76800)
I0718 03:31:34.467628  7016 net.cpp:185] Memory required for data: 526156544
I0718 03:31:34.468128  7016 layer_factory.hpp:77] Creating layer conv5
I0718 03:31:34.468128  7016 net.cpp:119] Creating Layer conv5
I0718 03:31:34.468128  7016 net.cpp:458] conv5 <- eltwise5a
I0718 03:31:34.468631  7016 net.cpp:432] conv5 -> conv5
I0718 03:31:34.471638  7016 net.cpp:170] Setting up conv5
I0718 03:31:34.471638  7016 net.cpp:177] Top shape: 64 256 3 3 (147456)
I0718 03:31:34.472139  7016 net.cpp:185] Memory required for data: 526746368
I0718 03:31:34.472139  7016 layer_factory.hpp:77] Creating layer slice5
I0718 03:31:34.472640  7016 net.cpp:119] Creating Layer slice5
I0718 03:31:34.472640  7016 net.cpp:458] slice5 <- conv5
I0718 03:31:34.472640  7016 net.cpp:432] slice5 -> slice5_1
I0718 03:31:34.473644  7016 net.cpp:432] slice5 -> slice5_2
I0718 03:31:34.473644  7016 net.cpp:170] Setting up slice5
I0718 03:31:34.474145  7016 net.cpp:177] Top shape: 64 128 3 3 (73728)
I0718 03:31:34.474145  7016 net.cpp:177] Top shape: 64 128 3 3 (73728)
I0718 03:31:34.474647  7016 net.cpp:185] Memory required for data: 527336192
I0718 03:31:34.474647  7016 layer_factory.hpp:77] Creating layer etlwise5
I0718 03:31:34.475147  7016 net.cpp:119] Creating Layer etlwise5
I0718 03:31:34.475147  7016 net.cpp:458] etlwise5 <- slice5_1
I0718 03:31:34.475649  7016 net.cpp:458] etlwise5 <- slice5_2
I0718 03:31:34.475649  7016 net.cpp:432] etlwise5 -> eltwise5
I0718 03:31:34.476150  7016 net.cpp:170] Setting up etlwise5
I0718 03:31:34.476150  7016 net.cpp:177] Top shape: 64 128 3 3 (73728)
I0718 03:31:34.476150  7016 net.cpp:185] Memory required for data: 527631104
I0718 03:31:34.476651  7016 layer_factory.hpp:77] Creating layer pool4
I0718 03:31:34.476651  7016 net.cpp:119] Creating Layer pool4
I0718 03:31:34.477152  7016 net.cpp:458] pool4 <- eltwise5
I0718 03:31:34.477152  7016 net.cpp:432] pool4 -> pool4
I0718 03:31:34.478665  7016 net.cpp:170] Setting up pool4
I0718 03:31:34.478665  7016 net.cpp:177] Top shape: 64 128 1 1 (8192)
I0718 03:31:34.478665  7016 net.cpp:185] Memory required for data: 527663872
I0718 03:31:34.479158  7016 layer_factory.hpp:77] Creating layer slice_fc1
I0718 03:31:34.479158  7016 net.cpp:119] Creating Layer slice_fc1
I0718 03:31:34.479158  7016 net.cpp:458] slice_fc1 <- pool4
I0718 03:31:34.479660  7016 net.cpp:432] slice_fc1 -> slice_fc1_1
I0718 03:31:34.479660  7016 net.cpp:432] slice_fc1 -> slice_fc1_2
I0718 03:31:34.480161  7016 net.cpp:170] Setting up slice_fc1
I0718 03:31:34.480662  7016 net.cpp:177] Top shape: 64 64 1 1 (4096)
I0718 03:31:34.480662  7016 net.cpp:177] Top shape: 64 64 1 1 (4096)
I0718 03:31:34.480662  7016 net.cpp:185] Memory required for data: 527696640
I0718 03:31:34.480662  7016 layer_factory.hpp:77] Creating layer etlwise_fc1
I0718 03:31:34.481164  7016 net.cpp:119] Creating Layer etlwise_fc1
I0718 03:31:34.481164  7016 net.cpp:458] etlwise_fc1 <- slice_fc1_1
I0718 03:31:34.481164  7016 net.cpp:458] etlwise_fc1 <- slice_fc1_2
I0718 03:31:34.481665  7016 net.cpp:432] etlwise_fc1 -> eltwise_fc1
I0718 03:31:34.481665  7016 net.cpp:170] Setting up etlwise_fc1
I0718 03:31:34.482167  7016 net.cpp:177] Top shape: 64 64 1 1 (4096)
I0718 03:31:34.482167  7016 net.cpp:185] Memory required for data: 527713024
I0718 03:31:34.482167  7016 layer_factory.hpp:77] Creating layer drop1
I0718 03:31:34.482167  7016 net.cpp:119] Creating Layer drop1
I0718 03:31:34.482668  7016 net.cpp:458] drop1 <- eltwise_fc1
I0718 03:31:34.482668  7016 net.cpp:417] drop1 -> eltwise_fc1 (in-place)
I0718 03:31:34.483170  7016 net.cpp:170] Setting up drop1
I0718 03:31:34.483170  7016 net.cpp:177] Top shape: 64 64 1 1 (4096)
I0718 03:31:34.483670  7016 net.cpp:185] Memory required for data: 527729408
I0718 03:31:34.483670  7016 layer_factory.hpp:77] Creating layer fc2
I0718 03:31:34.483670  7016 net.cpp:119] Creating Layer fc2
I0718 03:31:34.484172  7016 net.cpp:458] fc2 <- eltwise_fc1
I0718 03:31:34.484172  7016 net.cpp:432] fc2 -> fc2
I0718 03:31:34.484673  7016 net.cpp:170] Setting up fc2
I0718 03:31:34.484673  7016 net.cpp:177] Top shape: 64 9 (576)
I0718 03:31:34.485174  7016 net.cpp:185] Memory required for data: 527731712
I0718 03:31:34.485174  7016 layer_factory.hpp:77] Creating layer fc2_fc2_0_split
I0718 03:31:34.485174  7016 net.cpp:119] Creating Layer fc2_fc2_0_split
I0718 03:31:34.485677  7016 net.cpp:458] fc2_fc2_0_split <- fc2
I0718 03:31:34.485677  7016 net.cpp:432] fc2_fc2_0_split -> fc2_fc2_0_split_0
I0718 03:31:34.485677  7016 net.cpp:432] fc2_fc2_0_split -> fc2_fc2_0_split_1
I0718 03:31:34.486177  7016 net.cpp:170] Setting up fc2_fc2_0_split
I0718 03:31:34.486177  7016 net.cpp:177] Top shape: 64 9 (576)
I0718 03:31:34.486678  7016 net.cpp:177] Top shape: 64 9 (576)
I0718 03:31:34.487180  7016 net.cpp:185] Memory required for data: 527736320
I0718 03:31:34.487180  7016 layer_factory.hpp:77] Creating layer softmax_loss
I0718 03:31:34.487681  7016 net.cpp:119] Creating Layer softmax_loss
I0718 03:31:34.488183  7016 net.cpp:458] softmax_loss <- fc2_fc2_0_split_0
I0718 03:31:34.488183  7016 net.cpp:458] softmax_loss <- label_data_1_split_0
I0718 03:31:34.488684  7016 net.cpp:432] softmax_loss -> softmax_loss
…
